app/src/main/assets/spendwise_purchase_advisor.tflite (tflite, 13592 bytes, 5 tensors)

arith.constant f4 [1, 32]
000000 11 8c a8 3e 3d 9f f3 3e 18 3e 34 be ef ce 2a 3e
       0.32919362 0.47582427 -0.17601812 0.16680501
000010 36 98 a3 be 65 58 cc be b6 c7 f7 3e 31 98 7e be
       -0.31952065 -0.3991119 0.48394555 -0.24862744
000020 13 b0 17 3e 4a b3 56 be f4 e6 ae bd 8d f4 7c 3d
       0.1481326 -0.20966831 -0.085401446 0.06175666
000030 60 b2 47 3d 48 4d 15 bf 50 33 02 bf 9b d1 6b be
       0.048754096 -0.58321047 -0.50859547 -0.23029177
000040 95 1d db be e5 e7 e7 3e 93 59 05 3f 65 0a 9f 3e
       -0.42796007 0.4529411 0.52089804 0.31062618
000050 78 f3 a3 be de 8d 2a 3f 19 24 a0 bc ed 0e 39 be
       -0.3202169 0.6662272 -0.019548463 -0.180721
000060 47 b0 e6 be 97 bc d2 3e 84 85 59 3e 95 c9 75 be
       -0.45056364 0.41159508 0.21242338 -0.24002679
000070 b2 d0 85 be 01 de a6 bd e3 26 3b 3f 0a 08 b6 3e
       -0.26135784 -0.08147813 0.7310621 0.35553008

arith.constant1 f4 [32, 64]
000000 e7 48 50 3d 4a e2 70 3e c3 3c 5f be ee 96 11 bc
       0.050850775 0.23523822 -0.21800523 -0.008886082
000010 c3 e2 0e 3e a4 73 00 3e 1a e4 6d be fe 5a a9 bd
       0.1395369 0.12544113 -0.23231545 -0.082693085
000020 03 25 29 3e 40 95 fb 3d 10 e5 92 3d 02 c2 c6 3e
       0.16518025 0.122843266 0.071725965 0.3881989
000030 b5 4e 08 be eb 88 30 3e 65 f1 47 3e a0 f8 39 3d
       -0.13311274 0.1723973 0.19525678 0.045403123
000040 13 76 b7 bd 07 82 bd 3e 9d ee 29 3e dc 36 65 be
       -0.08958068 0.37013265 0.1659493 -0.22384208
000050 4d a3 cd bd 0c 5f 2c be 4a cc 00 be 10 9e a1 3e
       -0.10040913 -0.16833133 -0.1257793 0.31565905
000060 99 fe 7a 3d a9 6a 6a be ab e4 3c 3e 85 0d bd bd
       0.06127796 -0.2289225 0.18446605 -0.09231094
000070 0c 08 28 be 98 d1 dc bb 5f bc b4 bc 50 a8 89 bd
       -0.1640932 -0.0067388527 -0.022062479 -0.06721556
000080 76 d9 12 be 78 39 b1 3b e3 2a ba 3c 3f e1 d5 3d
       -0.14340767 0.005408462 0.022725528 0.10443353
000090 15 23 d4 bc 24 f9 11 3e 51 7f 51 be e4 ab 2c be
       -0.025895635 0.14255196 -0.20458724 -0.16862446
0000a0 ae e9 ea be 4f e5 f2 3d 1d 20 b6 3e c6 ce 11 3d
       -0.45881408 0.118601434 0.35571375 0.035597585
0000b0 ad e5 64 ba 42 a4 b8 bd 21 a7 09 be 29 7c a7 3d
       -0.0008731734 -0.09015705 -0.13442661 0.081779785
0000c0 97 35 f0 3c ab e7 4a be 98 5b 19 3e ae dd 6d 3e
       0.029322429 -0.19814937 0.14976346 0.23229095
0000d0 8f dd 8b be d7 5d 83 3a bc 00 7d be 98 d9 b4 bd
       -0.27317473 0.0010022473 -0.24707311 -0.08830565
0000e0 78 19 aa 3d 94 64 74 3d 91 fe 5e bd 7c 6f b3 bd
       0.08305639 0.05966623 -0.054441992 -0.08761498
0000f0 b6 b4 c3 3d b3 50 15 be 14 67 7b be d4 6e a0 3e
       0.09555952 -0.14581566 -0.2455104 0.31334555
000100 b3 16 97 3e cd 4f 89 3d ef c4 1b 3c b2 5f 5f bd
       0.29509506 0.06704674 0.009507402 -0.05453462
000110 a3 86 41 3e 55 33 77 bc 5c 4d 29 3e 5f 30 38 bd
       0.18899016 -0.015087922 0.16533417 -0.044968005
000120 08 85 8f 3d 40 8b 51 3c 0e 9e 8d 3e f6 47 0c 3f
       0.070077956 0.012789547 0.2765965 0.54797304
000130 35 44 ae 3d d6 3c e9 bc cc dc 6f 3e a3 fb 94 3d
       0.08509103 -0.028471392 0.23424071 0.072745584
000140 e2 41 7c 3d 7f 3f fa 3e 5f 0d 94 3d 82 13 77 be
       0.06158627 0.4887657 0.07229113 -0.24128535
000150 b6 1b 4f be fe 6c b0 bd fa b4 8c 3e 5e 95 32 3e
       -0.20225415 -0.086145386 0.27481824 0.17439792
000160 d8 29 db bd 94 a0 5f be f1 51 5d 3e 2d 37 dc 3d
       -0.107013404 -0.218386 0.2161329 0.107527114
000170 18 2b 9e 3e 3d 4f 91 bc 68 5f be 3d d7 54 06 be
       0.30892253 -0.01773798 0.09295541 -0.13118301
000180 5a 21 9a bd ac 76 f4 bd 04 cc d2 bd 37 1d 4d be
       -0.075258926 -0.11936697 -0.10292819 -0.20030676
000190 f3 5f b7 be 23 24 ca 3b d4 7d 35 be f7 bd 1c 3e
       -0.3581539 0.0061688586 -0.17723781 0.15306841
0001a0 9c a4 fd be 4c b5 64 3d be d5 67 3e aa f2 83 3c
       -0.4953965 0.05583696 0.2264013 0.016106922
0001b0 61 44 27 3e d5 fb 88 be f6 39 6f bc 41 33 0e bd
       0.16334678 -0.26754633 -0.014601221 -0.03471685
0001c0 fa de 29 3e d5 e3 51 3e ae c5 44 3e 8a 7f f1 3d
       0.16588965 0.20497067 0.19216034 0.11791904
0001d0 ac 3f 57 bd 86 b9 6c be e8 56 de bd 38 14 0e be
       -0.052550957 -0.23117647 -0.1085642 -0.138749
0001e0 1b 59 61 3e a7 e3 8e 3e fd a7 93 3e 06 54 8d 3d
       0.22006647 0.2790806 0.28839102 0.06900792
0001f0 71 29 86 bd 22 f1 6c be 90 5b 9c 3d 88 57 b6 bd
       -0.06550873 -0.2313886 0.07634652 -0.08903414
000200 e7 f2 45 bc 37 e8 c8 be e5 ce 8d 3d 63 30 86 3e
       -0.012081838 -0.39239666 0.069242276 0.2620879
000210 f9 1a 19 bc 96 96 00 be d0 73 6b 3e ce 50 7c bd
       -0.00934481 -0.12557444 0.22993398 -0.0616005
000220 6c e0 36 3e 88 52 c9 bd c8 e1 85 bd 2e 71 b8 be
       0.17859048 -0.09830195 -0.06537205 -0.3602385
000230 d8 61 da 3d 36 35 9b 3e 30 5c a0 bd 10 4e 63 b8
       0.106631935 0.30314034 -0.07830083 -5.419372e-05
000240 c1 e1 c7 3e f6 d5 98 be 2a 3b 74 3e 73 39 e2 bd
       0.39039424 -0.2985074 0.23850694 -0.11046114
000250 66 e0 64 bd 96 f3 b2 3c 09 78 3c be 64 4a 24 be
       -0.055878066 0.021844666 -0.18405165 -0.16044003
000260 48 5d f6 3d b0 27 f6 3d cf cb d9 bd 4b fe 26 3d
       0.12029511 0.120192885 -0.106345765 0.040769856
000270 83 5e 1e 3e 3f 32 7a bd 61 e8 29 bd b4 58 7c 3e
       0.15465741 -0.061083075 -0.04148138 0.24643213
000280 66 fc 31 3e bc 36 c5 bd e5 6e 09 bd ec 0a a0 3e
       0.17381439 -0.096295804 -0.033553023 0.31258333
000290 35 0b 10 3e 3b 88 97 3e 74 56 30 3e 6d a5 45 3e
       0.14066775 0.29596123 0.17220479 0.19301386
0002a0 4b 1f 91 3c ea e0 55 be 22 52 a8 be ce cc 2d 3e
       0.017715117 -0.20886579 -0.32875162 0.16972658
0002b0 6f 8d 5f 3e 49 53 2f 3d 2a 5b 6e 3e 4e 39 e9 bd
       0.21831296 0.042804036 0.23276964 -0.11387883
0002c0 f4 51 44 be ad ee 79 3e 79 41 40 be 86 4a 05 3e
       -0.19171888 0.24407454 -0.18774976 0.1301671
0002d0 11 4a 53 3e 0f 55 43 be c0 70 ab bc 81 b5 b7 3d
       0.20633723 -0.19075416 -0.020927787 0.08970166
0002e0 79 33 ee bd 99 fa 21 be f9 90 67 3e 52 11 94 3e
       -0.116309114 -0.15818252 0.22613896 0.28919464
0002f0 3c ba 00 be b4 01 ad 3d bc 2e 38 be c2 7d 2e 3b
       -0.12571043 0.084475905 -0.17986578 0.002662525
000300 31 c0 00 3d 65 67 ea 3e 33 20 48 3d 8c ad 31 3e
       0.031433288 0.4578201 0.048858833 0.17351359
000310 4e 22 44 3e 55 89 93 bd f8 76 e2 bd 35 ca 2a 3e
       0.19153711 -0.072039284 -0.11057848 0.16678698
000320 e2 79 3b be c4 96 5c 3e e2 cc 33 bd da dc 6b 3e
       -0.18308213 0.21541888 -0.043896563 0.23033467
000330 2c 0e 08 3d 26 51 78 bc 9e dd 2c 3e 95 79 c2 3e
       0.03321664 -0.015156066 0.16881415 0.37983385
000340 11 b5 9e 3e 51 3d 23 3e 5c 68 2b be 9a 9a 51 3e
       0.30997518 0.15941359 -0.16739029 0.20469132
000350 18 c3 21 3e 73 e6 9a 3d 2c 0e 48 3d 64 c6 8d bd
       0.15797079 0.07563486 0.04884164 -0.06922606
000360 8d 8b 6d be 30 b8 61 3d 55 93 42 3d 78 9d 77 3e
       -0.23197766 0.055107296 0.047503788 0.24181163
000370 15 20 a8 bc fe 99 b5 be 07 9e 5c 3e ca 80 47 3c
       -0.02052311 -0.3546905 0.21544658 0.012176702
000380 95 fc 65 be 31 f2 74 be ce ba dc bc 58 02 9e bd
       -0.22459634 -0.23920514 -0.026944544 -0.07715291
000390 74 ed a6 be 72 82 8c be 55 ad d9 3c 0d 3b 05 bc
       -0.32603037 -0.27443272 0.026571909 -0.008131755
0003a0 7c 11 4f be 62 bd 1e 3a 3f 49 44 3d 7c da e7 3d
       -0.20221514 0.0006055442 0.047921415 0.113209695
0003b0 86 8e 35 3e 9a 68 02 be 20 fe 21 3d 29 e9 bd bd
       0.1773015 -0.12735215 0.039548993 -0.092729874
0003c0 7a 08 d6 bd 12 4e 70 bc f6 2d 20 3e e6 8f 0f 3e
       -0.104508355 -0.014667051 0.15642533 0.14019737
0003d0 41 63 8b bc e1 2e 0d be a4 a5 2c be 0a 2b e4 bd
       -0.017015101 -0.13787414 -0.16860062 -0.111410215
0003e0 54 4a 1b bd f8 be 0b be c2 08 27 be 44 4a 82 be
       -0.03791268 -0.13647068 -0.16311935 -0.25447285
0003f0 55 30 be 3d 14 ef 5d 3d 90 c0 ab 3d 01 25 3e 3e
       0.09286562 0.05418308 0.08386338 0.18568803

sequential_1/dense_1_2/BiasAdd/ReadVariableOp f4 [32]
000000 33 0e 2d 3e 56 16 4d 3e 34 85 9f bd 00 57 30 3e
       0.16899948 0.20028052 -0.07789078 0.17220688
000010 ee 8e 33 bc ae 6f 94 bd 08 da 57 3e 72 a9 eb bd
       -0.01095937 -0.07247864 0.21079266 -0.115069285
000020 af a0 84 3e a9 1c 07 be b6 74 05 be b8 e3 18 3e
       0.25903842 -0.13194527 -0.13032803 0.14930618
000030 78 b9 40 3e 2a 28 f4 bd 88 23 f3 bd a7 a5 1e be
       0.1882075 -0.11921723 -0.118720114 -0.15492879
000040 ad a5 fd bd a4 56 19 3e 70 18 71 3e 52 79 0b 3e
       -0.12385116 0.14974457 0.23544478 0.13620499
000050 2c 14 19 bd e9 c8 66 3e f3 6e d8 bc c7 45 0e be
       -0.037372753 0.22537579 -0.026420092 -0.13893805
000060 d3 e4 f1 bd 6b 4a 2e 3e 29 ad 1e 3e 13 cb 0f be
       -0.11811223 0.17020576 0.15495743 -0.1404231
000070 19 75 7e bc 41 08 4d bd 1d 96 7b 3e 88 ab 64 3e
       -0.015530848 -0.0500567 0.24568982 0.22331059

sequential_1/dense_1/BiasAdd/ReadVariableOp f4 [64]
000000 82 62 6c bd ab b1 23 3e 92 7f 6e be ec 10 13 be
       -0.057711132 0.15985744 -0.23290852 -0.14361924
000010 73 3e da 3d c7 cd 7d bd 9b 12 fc 3b 0d dd 12 be
       0.106564425 -0.061963823 0.0076926476 -0.14342137
000020 2a 6d 12 3e 00 00 00 00 15 70 90 3d 2c df 8d 3e
       0.14299455 0.0 0.07052628 0.2770933
000030 ce 13 b8 3d 6a 6c 97 bd 41 37 0e 3e 29 5e 83 3e
       0.089881524 -0.07393725 0.13888265 0.25657776
000040 ea 68 08 3d 78 35 c6 3e 14 cf 23 be 00 83 2f be
       0.03330318 0.38712668 -0.15996963 -0.17139816
000050 e0 b8 27 be 3d b4 98 3b 9e ec 88 3e a2 2a 3f 3e
       -0.16379118 0.004660158 0.26743025 0.18668607
000060 ad 9c 23 bc c9 0b 72 bc 84 d1 1f 3e 10 05 17 3e
       -0.009986085 -0.014773318 0.15607268 0.14748025
000070 bc 65 bf 3d 5a 06 17 be 1a 99 28 be f4 e9 0f be
       0.09345576 -0.14748517 -0.16464654 -0.1405409
000080 b1 ce d7 bb ed 7d 3c be dd 1b 2b 3e 09 3a 82 bb
       -0.006585919 -0.18407412 0.16709848 -0.0039742035
000090 de 95 2f be f7 8f 28 be a9 50 dd bd 89 07 7a bd
       -0.17147014 -0.16461168 -0.108064 -0.061042342
0000a0 7d b0 07 be 70 63 3c 3e a5 26 80 3e 33 a2 50 3e
       -0.13250919 0.18397307 0.25029483 0.20374374
0000b0 7d 70 00 3e 90 26 d7 bb 6c 47 40 be b2 a9 14 be
       0.12542911 -0.0065658763 -0.18777245 -0.14517859
0000c0 f0 08 02 be dc 17 a6 bd db a7 10 3e c0 e6 3c 3e
       -0.12698722 -0.081100196 0.14126532 0.18447399
0000d0 4b 46 b3 bd 61 0b 58 be 00 00 00 00 fb 0b 1e be
       -0.08753642 -0.2109809 0.0 -0.15434258
0000e0 93 0f 35 3d 9c 38 33 3e 38 f5 77 3e b2 7f 11 be
       0.044204306 0.17502064 0.24214637 -0.14208868
0000f0 1c e3 1b 3e 37 cb 2c be 00 00 00 00 91 3c 5c 3e
       0.15223354 -0.16874395 0.0 0.21507479

sequential_1/dense_1/MatMul f4 [64, 11]
000000 60 82 61 3e 0e 80 6a 3e b1 3f 9f 3c be c6 6d be
       0.2202239 0.22900411 0.01943955 -0.23220345
000010 48 98 95 3d 06 35 3d be 13 0a a9 bd 8f f8 9d be
       0.07304436 -0.18477258 -0.08253875 -0.30853698
000020 ab 6a 0f 3d 0b 04 f6 bd 7a 44 12 bc b5 99 67 bd
       0.035013836 -0.1201249 -0.008927459 -0.05654307
000030 19 51 c8 3e 2c 64 89 3e 4c 45 09 3e ec dc be 3d
       0.39124373 0.26834238 0.13405341 0.09319481
000040 c9 76 30 be c3 5d 53 3e d7 9a e8 bc 80 b8 3d bd
       -0.17232813 0.20641236 -0.028394146 -0.04631853
000050 43 56 a7 be 64 7b 00 bd 73 19 68 be aa 67 5b 3d
       -0.32683 -0.031367674 -0.22665958 0.05356566
000060 90 cb 33 be 5f 07 0a bc 6c 6c ec 3e 6e 06 c6 bd
       -0.17558122 -0.008424609 0.4617647 -0.09669195
000070 9b 28 bd be cf 6a e8 3e 7d 44 33 3e 72 0c 28 3e
       -0.36945042 0.45393988 0.17506595 0.16410998
000080 9a a4 e9 3e da cf b3 3e df 08 15 be de f3 e9 bd
       0.45633394 0.35119516 -0.14554165 -0.11423467
000090 53 c2 48 3e c2 cb a2 3e 01 85 2c 3e c1 16 47 be
       0.19605379 0.3179608 0.16847612 -0.19442274
0000a0 51 df 0a 3f b0 09 f6 bd 97 68 01 3d 96 c1 97 3e
       0.54247004 -0.120135665 0.031593885 0.29639882
0000b0 66 f2 7d 3d 49 c1 06 3e b1 a6 67 3e 54 c9 a3 be
       0.061998747 0.1315967 0.22622181 -0.3198954
0000c0 cc a0 0e be 26 42 fd bd eb 4b 1d 3d 7f 95 a9 bd
       -0.13928527 -0.123661324 0.03840248 -0.08280467
0000d0 f9 cb 26 be 25 07 7b 3e 1c 16 de bd 0d a8 0a be
       -0.16288747 0.24514444 -0.10844061 -0.13540669
0000e0 a0 41 0d bd 2e 1e 55 3d 54 0e 7d be e1 65 8e bd
       -0.034486413 0.052030735 -0.24712497 -0.069530256
0000f0 1a 28 04 bd ea 32 82 3d b2 1d 26 be ad 5a 0e 3e
       -0.032264806 0.06357367 -0.16222265 0.13901778
000100 94 6e 1b be 43 0a b4 bd e4 91 ce ba 98 17 5b be
       -0.15178901 -0.0879102 -0.0015760032 -0.21395719
000110 f8 2e e0 bc ae ba 8f 3e 24 98 fe bd 0d 72 28 be
       -0.027366146 0.28072113 -0.12431362 -0.16449757
000120 16 de a3 bd fa 80 df bd 5c 0b 74 be 3c 51 0f 3d
       -0.08001344 -0.10913272 -0.23832458 0.03498958
000130 78 b5 2a 3e c8 03 03 be e9 8a ac 3d b9 eb 63 bd
       0.16670787 -0.12794411 0.084249325 -0.055644725
000140 1b aa 08 3f fc c6 6a 3e 37 3c 9d 3d ae 97 a1 be
       0.5338456 0.22927469 0.07677501 -0.31561035
000150 29 55 d7 3e b1 ac d7 bd b6 21 28 3e f2 6f cc 3e
       0.4205716 -0.10530985 0.1641911 0.39929157
000160 f1 a6 4c 3e 58 ec a2 3d 4c dc 0b 3e 11 b4 e3 bd
       0.19985558 0.07955235 0.13658255 -0.11118329
000170 4f 07 98 bd 91 27 61 be a9 2d 60 3e d2 b0 06 bf
       -0.07423269 -0.2198775 0.21892418 -0.52613556
000180 20 32 31 be 26 8e 75 3e 39 ba a9 3d 6c d6 75 bd
       -0.17304277 0.23980007 0.08287472 -0.06001894
000190 58 5d 2d bd 0a 5e 95 bd 0b 38 05 be 80 17 59 3e
       -0.042325348 -0.07293327 -0.1300966 0.21200371
0001a0 24 96 28 be 38 ac 12 3d c9 b1 8a be 70 54 62 be
       -0.16463524 0.03580877 -0.27088764 -0.22102523
0001b0 54 3c 32 bd b0 c7 40 be b1 a8 19 3e c8 fc c8 3d
       -0.043514565 -0.18826175 0.15005757 0.09813839
0001c0 9c a5 80 3e 14 3b 92 bd 08 d7 e9 3b d2 75 ac bd
       0.2512635 -0.071401745 0.0071362294 -0.0842091
0001d0 1b bb 1c 3f bf 96 90 be 40 e4 15 3e ea 06 6e be
       0.61223 -0.2824001 0.14637852 -0.23244825
0001e0 24 33 c6 3d 31 fe 89 3e c8 6f 0d 3e b6 d4 0a 3e
       0.09677723 0.26951745 0.13812172 0.13557705
0001f0 fe 02 b1 be 71 29 0e bf 42 67 2d 3d 75 b7 06 3f
       -0.34572595 -0.55531985 0.042334802 0.52623683
000200 a8 99 3a be 2b b3 63 3d 7a e4 67 3c cd f2 16 be
       -0.18222678 0.05559079 0.014153594 -0.14741059
000210 5d dc 94 b9 3b 7a e1 3d 1f 15 e7 3d f6 0b 43 be
       -0.00028392943 0.11009642 0.112833254 -0.19047531
000220 c1 99 65 be 33 0f 44 be 39 76 60 be c8 d8 ba bd
       -0.22421934 -0.19146423 -0.21920098 -0.09123379
000230 cd 47 6f bd 05 74 4c 3e 5c b4 12 3e 7b 00 1d bc
       -0.058418084 0.19966133 0.14326614 -0.009582634
000240 08 e5 8a bd ef 19 2b 3c c6 d5 11 3e 9e 11 c9 3e
       -0.067819655 0.010443195 0.14241704 0.39271253
000250 50 09 4d 3e f5 90 2a bf 57 a5 f9 3e 12 a2 5f 3e
       0.20023084 -0.66627437 0.48758957 0.21839169
000260 82 08 44 be 2b 08 9d 3e b6 85 1f 3e c3 1a d5 3e
       -0.1914387 0.30670294 0.1557835 0.4162198
000270 7e 42 08 be 29 9d 37 3e 23 dc d7 3d 31 3f 98 bd
       -0.13306615 0.17931046 0.105400346 -0.07433928
000280 d1 f0 9c 3e 2b 6b 62 3e c5 58 21 bd eb 55 1a bf
       0.30652478 0.22111194 -0.039391298 -0.6028735
000290 e0 8a cd bd 7b cc f7 bd 09 78 ca bd 78 5f 83 3e
       -0.10036254 -0.120995484 -0.09886176 0.25658774
0002a0 6c 3c b5 be 2e d2 ba be 2a 8a 1c 3e 82 27 f9 3e
       -0.3539766 -0.3648848 0.1528708 0.48662955
0002b0 72 59 ba bd 7e e1 fc ba 85 7f 51 bd 8a 49 9a be
       -0.090990916 -0.0019293276 -0.051147003 -0.3013423
0002c0 37 be 08 3e 4b 77 6a be 8c 7d 9d bc 7b f4 56 3e
       0.13353811 -0.22897069 -0.019224904 0.209917
0002d0 9a 7d d2 3e 7f f0 71 bd 80 c0 98 be ae 2b d1 3c
       0.4111145 -0.059067246 -0.29834366 0.025533523
0002e0 63 56 77 3b 45 62 0a bd 2f c3 87 be ee 13 b4 3d
       0.00377407 -0.033785123 -0.265161 0.08792864
0002f0 20 e5 b0 3e 30 6d cb 3e bb a1 87 be 30 00 d9 be
       0.34549809 0.3973174 -0.26490578 -0.42382956
000300 ac da 1d 3e f3 af 4c 3f 00 b6 e0 bd c2 92 3f bd
       0.15415448 0.7995598 -0.10972214 -0.04677082
000310 7d b8 07 bc 83 5a a9 bd aa d5 47 3d c9 54 19 bc
       -0.0082837315 -0.08269217 0.04878775 -0.009358593
000320 2a 6b 74 be bb ea d4 3d 22 a4 6d 3e db 84 0d be
       -0.23869005 0.10396334 0.23207143 -0.13820212
000330 47 17 0c bf f4 22 14 3e 21 aa ea 3b 1c fa 6b 3e
       -0.5472302 0.14466459 0.007161394 0.23044628
000340 44 c5 c7 3e 42 1f ac 3d 95 2a c7 bd 84 48 d3 be
       0.3901769 0.084043995 -0.09724919 -0.41266263
000350 d8 05 fc bb ba 17 a0 3e 3f ee 83 be a0 47 60 be
       -0.0076911263 0.31268102 -0.25767705 -0.21902323
000360 c1 fe 00 3f 58 da 29 3e b2 60 26 3e 0d ca c0 bd
       0.50388724 0.16587198 0.16247824 -0.09413538
000370 0d 83 e4 3d 11 c7 31 be b6 2a 6e 3d cc b3 45 3e
       0.111578085 -0.17361094 0.0581462 0.19306868
000380 e2 e6 2d 3e a8 a8 63 bc 62 97 24 bf 82 5a 06 3f
       0.16982606 -0.013895191 -0.6429349 0.52481854
000390 c4 50 8c 3d 7c cd 60 3e e2 f9 cf 3e 41 93 bb bd
       0.06851342 0.21953386 0.40620333 -0.09158946
0003a0 68 9a 31 be 2a 72 6a 3e cd ba d2 3d 0b 19 36 3e
       -0.17344058 0.22895113 0.10289536 0.1778299
0003b0 4a 4b 8e be c6 d7 8f be 8d 9f ed bc 25 95 07 3d
       -0.27791816 -0.2809431 -0.029006744 0.03310122
0003c0 91 7e ac bd d1 20 42 3e 3c 63 35 3e ae 7b 72 3e
       -0.08422578 0.18957831 0.17713636 0.23679993
0003d0 e0 55 71 3e 54 67 5a bc e8 a0 ec be e8 1d 33 3e
       0.23567915 -0.013330299 -0.46216512 0.17491877
0003e0 67 3e 01 3f 7b 27 7b be 08 39 9d bd 0a 57 4e bd
       0.50485843 -0.2452678 -0.076768935 -0.050375976
0003f0 b2 05 d7 bd 3a 84 e2 3d e8 bc 2b 3e 20 9a 2d 3d
       -0.10499133 0.110603765 0.16771281 0.042383313
